handwrite_digit_model.pkl (npz, 44998 bytes, 8 tensors)

arr_0 f4 [20, 1, 5, 5]
0	0x3e920d30	0.28525686
1	0x3eba781c	0.3641976
2	0x3ea7c7dc	0.32769668
3	0x3e876277	0.2644231
4	0x3e53f5c1	0.20699216
5	0x3e615de0	0.22008467
6	0x3ead6048	0.3386252
7	0x3ead5d6d	0.3386034
8	0x3ead4023	0.33837995
9	0x3e943215	0.2894446
10	0xbdd99614	-0.10624328
11	0xbd9e5689	-0.07731349
12	0xbcc961dc	-0.024582796
13	0x3d1b8e0b	0.03797726
14	0x3e1819d0	0.14853597
15	0xbe864db1	-0.2623115
16	0xbe8acec5	-0.27110878
17	0xbe8721a1	-0.26392844
18	0xbe583d8a	-0.21117225
19	0xbc8adcc9	-0.016950982
20	0xbe4e5753	-0.20150499
21	0xbe7be9af	-0.24600862
22	0xbe7235b0	-0.23653293
23	0xbe3a7f9b	-0.1821274
24	0xbd65d4ab	-0.05611102
25	0x3d9cbaee	0.076528415
26	0x3ded064b	0.11573466
27	0x3de0de82	0.1097994
28	0x3dd2c6ae	0.102918014
29	0x3dbb4297	0.091435604
30	0xbca34f97	-0.019935412
31	0x3b6d3ba7	0.0036198886
32	0x3c7f2422	0.01557258
33	0x3c7d9447	0.015477247
34	0x3cea283f	0.028583644
35	0xbd95d303	-0.07315638
36	0xbda7b49a	-0.08188744
37	0xbda13967	-0.07872277
38	0xbd968999	-0.073504634
39	0xbd1dd0e5	-0.038529295
40	0xbd12418e	-0.03570705
41	0xbd6ae4cd	-0.057347108
42	0xbd65a25f	-0.056063052
43	0xbd54fd4d	-0.05199938
44	0xbced6527	-0.028978897
45	0x3d036c55	0.032085735
46	0x3c80d0fc	0.015724652
47	0x3bedb9a6	0.007254797
48	0x3c297ebc	0.010345157
49	0xb812faa4	-3.504254e-05
50	0x3bec51be	0.007211893
51	0x3cbf275f	0.023334203
52	0x3d001469	0.031269465
53	0x3d0dbb94	0.034602717
54	0x3cb747cf	0.022373108
55	0x3d0aec07	0.0339165
56	0x3d0faac0	0.03507495
57	0x3ccbce5b	0.024878671
58	0x3c0c98a5	0.008581315
59	0xbc264d87	-0.01015032
60	0x3c885387	0.016641391
61	0xbb7b73c0	-0.0038368553
62	0xbc9427ac	-0.018085323
63	0xbceb591a	-0.02872901
64	0xbcc002c9	-0.023438828
65	0xbc67a0db	-0.014137472
66	0xbcfb2b05	-0.030660162
67	0xbd10e5f3	-0.035375547
68	0xbcd2d214	-0.025734939
69	0xbc02a61c	-0.007974174
70	0xbca6258e	-0.02028158
71	0xbca1b14a	-0.019737858
72	0xbc3db800	-0.011579514
73	0x3be23eae	0.0069044447
74	0x3c8c832f	0.017152397
75	0xbdfba548	-0.12287384
76	0xbe0c0c2d	-0.1367652
77	0xbe127efd	-0.14306255
78	0xbd819eb2	-0.06329097
79	0x3dae59e5	0.0851324
80	0xbe358400	-0.17726135
81	0xbe2a5f21	-0.16637851
82	0xbdfc2b1a	-0.123129085
83	0x3d2055cf	0.039144333
84	0x3e656f02	0.22405627
85	0xbe4fbe52	-0.20287445
86	0xbe1a069d	-0.15041585
87	0xbca98bd4	-0.020696558
88	0x3e47a8b5	0.1949795
89	0x3e8b03f7	0.27151462
90	0xbe2e0077	-0.16992365
91	0xbd76ee48	-0.060285836
92	0x3e101f73	0.14074497
93	0x3e868048	0.26269746
94	0x3e469063	0.19391017
95	0xbd29a05b	-0.041412693
96	0x3dbbc38e	0.091681585
97	0x3e58c4ab	0.21168773
98	0x3e4a139c	0.19734043
99	0x3d9b636c	0.075873226
100	0x3dd04d60	0.10171008
101	0x3e06112f	0.13092493
102	0x3da8a551	0.082346566
103	0xbc3602a5	-0.011109029
104	0xbd696f1c	-0.056990728
105	0x3e130b0c	0.14359683
106	0x3e3e1ebb	0.1856641
107	0x3d7bf7cb	0.06151561
108	0xbd80c36f	-0.06287276
109	0xbdc7c5a6	-0.09754495
110	0x3dfe32e2	0.12412049
111	0x3e30cdc0	0.17265987
112	0x3d87824e	0.066166505
113	0xbd65fb5b	-0.056147914
114	0xbddcac3b	-0.10775038
115	0x3d89ee86	0.06734948
116	0x3e0e8bb9	0.13920487
117	0x3dd3b06b	0.103363834
118	0xbc095276	-0.008381477
119	0xbd823107	-0.063570075
120	0x3b8a1ea0	0.0042150766
121	0x3d9ce101	0.076601036
122	0x3dbf844e	0.09351407
123	0x3d2a1025	0.041519303
124	0xbc16f32c	-0.00921325
125	0x3d447fba	0.047973372
126	0x3d8989c7	0.06715732
127	0x3d99eb46	0.07515578
128	0x3d643f1f	0.05572426
129	0x3c583ce9	0.013198116
130	0x3d95c4b3	0.07312908
131	0x3d3782a1	0.04480231
132	0x3c28f61e	0.010312585
133	0xbc5ea767	-0.0135897165
134	0xbd1237e6	-0.03569784
135	0x3cb8a52f	0.022539703
136	0xbcbf049c	-0.023317628
137	0xbd39fb0c	-0.045405433
138	0xbd40de17	-0.0470868
139	0xbd1facee	-0.038983278
140	0xbc89daac	-0.016827904
141	0xbd53ae7e	-0.05168008
142	0xbd5677e5	-0.052360434
143	0xbd30042d	-0.042972732
144	0xbc2b6cb9	-0.010462933
145	0xbd017939	-0.031609748
146	0xbd201d95	-0.03909071
147	0xbce79f10	-0.02827409
148	0xbb9a9c71	-0.0047183563
149	0x3ca81e5b	0.020522287
150	0x3d0bd672	0.034140058
151	0xbd6a2330	-0.057162464
152	0xbdbc216e	-0.09186064
153	0xbd1b4069	-0.037903223
154	0x3cec70f2	0.02886245
155	0x3df3f6ba	0.11912294
156	0xbd3d5000	-0.046218872
157	0xbe1e3dd0	-0.15453267
158	0xbe02972b	-0.12752979
159	0xbd381826	-0.044944905
160	0x3e30ab25	0.17252786
161	0x3d81f278	0.06345075
162	0xbde32e83	-0.11092856
163	0xbe22205f	-0.15832661
164	0xbdda3c9f	-0.10656094
165	0x3e204abe	0.15653512
166	0x3e4fedfc	0.20305628
167	0x3da19d43	0.078913234
168	0xbd47633f	-0.048678633
169	0xbda2f813	-0.07957473
170	0x3d1d03fa	0.03833387
171	0x3e337fe6	0.17529258
172	0x3e5ecfc3	0.21758942
173	0x3e169f5b	0.14709227
174	0x3d205ae7	0.03914919
175	0x3d904c68	0.07045823
176	0xbdec0363	-0.115240835
177	0xbe80330f	-0.25038955
178	0xbe65f02f	-0.22454904
179	0xbe1b7ec7	-0.1518508
180	0x3e5196c7	0.20467673
181	0xbccb0bc8	-0.024785891
182	0xbe7d8457	-0.24757515
183	0xbe87d632	-0.26530606
184	0xbe584140	-0.21118641
185	0x3e9f9b66	0.31173247
186	0x3e8091a9	0.2511113
187	0x3d505475	0.050861795
188	0xbd8452a7	-0.06461077
189	0xbd94566e	-0.07243048
190	0x3e80901e	0.25109953
191	0x3ed5801f	0.4169931
192	0x3ed51bb9	0.41622713
193	0x3e975e59	0.2956417
194	0x3e11faf6	0.1425589
195	0x3d5871ea	0.052843012
196	0x3e3e35bb	0.18575184
197	0x3e9cf396	0.3065459
198	0x3e9b6595	0.30350938
199	0x3e6a56c0	0.22884655
200	0x3dce54fd	0.10074804
201	0x3e573624	0.21016747
202	0x3e3ed31d	0.18635221
203	0x3cfee840	0.031116605
204	0xbda13e39	-0.07873196
205	0x3e2b5196	0.16730341
206	0x3e89d0ff	0.26917264
207	0x3e05eaa8	0.13077796
208	0xbdbc67bb	-0.091994725
209	0xbe3e213a	-0.18567362
210	0x3e883481	0.26602557
211	0x3e918e08	0.28428674
212	0x3d1f3a28	0.03887382
213	0xbe36c22d	-0.1784751
214	0xbe6add39	-0.22935952
215	0x3e8c7698	0.2743423
216	0x3e50cea7	0.20391332
217	0xbd3af1c2	-0.045640714
218	0xbe41608c	-0.18884486
219	0xbe5aa0b6	-0.21350369
220	0x3e6488e7	0.22317849
221	0x3df278e1	0.11839462
222	0xbdb54854	-0.08851686
223	0xbe35c933	-0.17752533
224	0xbe3a9664	-0.18221432
225	0x3bedf403	0.0072617545
226	0x3c0da65b	0.008645619
227	0x3d68c16b	0.056825083
228	0x3df16af2	0.11787976
229	0x3dee3cb0	0.11632669
230	0x3d42c19a	0.047547914
231	0x3e40a140	0.18811512
232	0x3e92e0c7	0.28687117
233	0x3e774ba8	0.24149954
234	0x3ddde9f7	0.10835641
235	0x3e589163	0.2114921
236	0x3ec43b0f	0.38326308
237	0x3eb2499f	0.34821793
238	0x3e1af03b	0.15130703
239	0xbb59870c	-0.0033192066
240	0x3e5e00c2	0.21679977
241	0x3e83eae1	0.25765136
242	0x3e0f22de	0.13978145
243	0x3d1553bc	0.03645681
244	0xbd066651	-0.03281242
245	0x3d86778b	0.0656577
246	0x3d074228	0.033022076
247	0xbb6991cf	-0.0035639887
248	0xba92d095	-0.0011201078
249	0xbb650a8f	-0.003494892
250	0x3c293baa	0.010329166
251	0x3c5289a4	0.012850199
252	0x3c29ccee	0.0103638
253	0xbb439eb7	-0.002984924
254	0xbbf37868	-0.007430125
255	0x3be1e2db	0.0068934984

arr_1 f4 [1, 20, 1, 1]
0	0x3d12e5ed	0.035863806
1	0x3c2a5796	0.010396859
2	0x3bd61b95	0.0065340498
3	0x3c63585d	0.013876048
4	0xbbd58758	-0.0065163784
5	0x3d0e14b8	0.034687728
6	0xbbde9f80	-0.006793916
7	0xbb9f8672	-0.004868322
8	0xbd026b50	-0.031840622
9	0xba819296	-0.0009885605
10	0xbb8c157c	-0.004275022
11	0xbc440f40	-0.0119665265
12	0x3c7a4925	0.015276228
13	0xbd11099c	-0.035409555
14	0x3ba86f02	0.0051401863
15	0x3c29f207	0.010372645
16	0xbc93b991	-0.01803282
17	0xbc247433	-0.01003747
18	0xbdab209e	-0.083558306
19	0x3c2bfe13	0.010497588

arr_2 f4 [10, 20, 5, 5]
0	0xbcd26e62	-0.0256874
1	0xbca214ac	-0.019785248
2	0x3cdcfbd2	0.026975546
3	0x3d675f7b	0.05648754
4	0x3d5a9f9f	0.053374883
5	0x3c7710b8	0.01507967
6	0x3d1d2ee7	0.038374808
7	0x3dab512f	0.08365094
8	0x3db6148a	0.08890636
9	0x3d11c9b5	0.035592753
10	0x3d615656	0.055013977
11	0x3d1f6520	0.0389148
12	0xbc36486b	-0.011125664
13	0xbd876376	-0.066107675
14	0xbd4f901a	-0.050674535
15	0xbd3992aa	-0.045305885
16	0xbdce203b	-0.10064741
17	0xbdd72ee4	-0.105069906
18	0x3b952f77	0.0045527774
19	0x3de70fff	0.11282348
20	0xbdb61da2	-0.08892371
21	0xbd8a1245	-0.06741766
22	0xbbf4410f	-0.0074540447
23	0x3d6ddec4	0.058073774
24	0x3d0141cf	0.0315569
25	0xbbac24fc	-0.0052534323
26	0xbba836a9	-0.005133469
27	0xbb7a323d	-0.0038176917
28	0x39da75e1	0.00041668027
29	0x3b515b7d	0.00319454
30	0x38ae7c46	8.320114e-05
31	0x3b9caa7b	0.004781065
32	0x3c8b02d5	0.016969124
33	0x3c9c5b9b	0.01908665
34	0x3c80ba27	0.015713764
35	0x3c719ccc	0.014746856
36	0x3c85b6ee	0.01632258
37	0x3c6cf77f	0.014463305
38	0x3b8f5cb4	0.0043750647
39	0xbb64686f	-0.0034852286
40	0xba8b18c6	-0.0010612241
41	0xbb7071d8	-0.003668895
42	0xbc512448	-0.012764998
43	0xbb72e754	-0.0037064152
44	0x3c699b24	0.01425818
45	0xbc88836c	-0.01666423
46	0xbc84fdae	-0.016234245
47	0xbbb0ead9	-0.00539909
48	0x3c80faee	0.015744653
49	0x3c506a2e	0.012720628
50	0x39de7890	0.00042432966
51	0xbb867ba8	-0.0041040964
52	0xbac8c3b2	-0.0015317111
53	0x3834c996	4.3103086e-05
54	0xba51fbdb	-0.00080102467
55	0xb99df528	-0.0003012803
56	0x3b2bc6c8	0.0026211012
57	0x3c3b6ca3	0.011439475
58	0x3c273423	0.010205301
59	0x3b79dd6f	0.003812637
60	0x3c22457a	0.00990426
61	0x3c61c007	0.013778693
62	0x3c6f7c15	0.014616986
63	0x3bfae23a	0.007656363
64	0xbada12c3	-0.0016637672
65	0x3ba34aab	0.0049832663
66	0x3a944de6	0.001131472
67	0x3b0ee324	0.0021802867
68	0x3c20ad5e	0.009806959
69	0x3c96cfa4	0.018409558
70	0xbbee17bb	-0.0072660125
71	0xbb28dede	-0.0025767605
72	0x3b5c4f8f	0.0033616757
73	0x3c5a6071	0.0133286575
74	0x3bf60cbd	0.0075088427
75	0x3bdfc69e	0.006829097
76	0x3c970188	0.018433347
77	0x3b25142c	0.0025189025
78	0xbd07242f	-0.03299349
79	0xbd748061	-0.059692744
80	0xbb896d7e	-0.0041939607
81	0xbcc89b09	-0.024487989
82	0xbd7a38a0	-0.061089158
83	0xbd0af7b0	-0.03392762
84	0x3c8bc288	0.017060533
85	0xbd26c74c	-0.040717408
86	0xbd2d953e	-0.042378657
87	0x3d23ea55	0.0400184
88	0x3ddd7293	0.10812869
89	0x3da4190c	0.0801259
90	0xbc24e56d	-0.010064465
91	0x3d9640a5	0.07336549
92	0x3dfbf73a	0.12303014
93	0x3d81e577	0.06342595
94	0xbd450501	-0.048100475
95	0x3d0ecbca	0.034862317
96	0x3dbbb00f	0.0916444
97	0x3d0f12b4	0.034929946
98	0xbd9e8e37	-0.07741969
99	0xbcd8ecd2	-0.026480112
100	0xbb90c783	-0.004418315
101	0xbc078fbd	-0.008274016
102	0xbbc22151	-0.005924382
103	0xbaceec0e	-0.0015786903
104	0xb89af57a	-7.389016e-05
105	0xbb961a15	-0.004580746
106	0xbbf6c994	-0.007531354
107	0xbcba7bae	-0.022764053
108	0xbd0e2118	-0.03469953
109	0xbcdca0fc	-0.026932232
110	0xbb4c11cf	-0.0031138544
111	0xbc560c86	-0.013064509
112	0xbd4a1df6	-0.04934498
113	0xbd9ca813	-0.07649245
114	0xbce4825e	-0.027894195
115	0xbc61a912	-0.01377322
116	0xbd1e3bad	-0.03863113
117	0xbd3691fc	-0.044572815
118	0xbcae7249	-0.02129473
119	0x3cb8a2b3	0.022538519
120	0xbc2bdd66	-0.010489797
121	0xbc763a98	-0.015028618
122	0x3cbd7daa	0.02313121
123	0x3d268753	0.0406564
124	0x3c4bfb88	0.012450106
125	0xbb2f3340	-0.0026733428
126	0xbbd10e45	-0.006379875
127	0xba351052	-0.0006907034
128	0x3b33715e	0.0027380805
129	0xbb1dd651	-0.0024084041
130	0xbb249178	-0.002511112
131	0x3c28b2bc	0.01029652
132	0x3c2bff61	0.010497899
133	0x3c7cf51b	0.015439297
134	0xbb60fb35	-0.0034329419
135	0x3c79f4d1	0.015256123
136	0x3cb310e1	0.021858634
137	0x3ca3f1e9	0.020012813
138	0x3a9782ee	0.0011559406
139	0xbbcba0a2	-0.0062142173
140	0x3bdaaa92	0.0066731656
141	0x3bb577dd	0.0055379705
142	0x3aab0ea3	0.0013050627
143	0x3ab57a1a	0.0013845593
144	0x3d04726a	0.032335676
145	0xbb1db05c	-0.0024061417
146	0xbc4924a6	-0.012276804
147	0xbb12dd54	-0.0022409754
148	0x3cd7d50f	0.026346711
149	0x3cc9822c	0.024598204
150	0x3b01a274	0.0019780667
151	0x3a674d73	0.00088234915
152	0xbbf7aa99	-0.0075581786
153	0x39a25206	0.0003096016
154	0x3a5e9856	0.0008491328
155	0xbb01a9d7	-0.001978507
156	0xbc1bbbbd	-0.0095052095
157	0xbcc15ba2	-0.023603264
158	0xbcc12624	-0.023577757
159	0xbb60ed25	-0.0034321037
160	0xbc5d0896	-0.013490817
161	0xbc9ba0cf	-0.018997578
162	0xbce827d9	-0.028339313
163	0xbd10f43b	-0.035389166
164	0xbce40597	-0.027834697
165	0xbc709fe5	-0.014686559
166	0xbcbbd52b	-0.022928795
167	0xbcede48c	-0.029039644
168	0xbd16c988	-0.03681329
169	0xbd0d3c09	-0.034481082
170	0x3b01d1c5	0.001980887
171	0xbbc35990	-0.0059616044
172	0xb8cba795	-9.711009e-05
173	0x3b2af655	0.0026086767
174	0xbb36c2db	-0.002788714
175	0x3c659943	0.014013591
176	0x3c40ee70	0.011775598
177	0x3b88f843	0.0041799857
178	0x3a124567	0.00055798
179	0xbbd3678e	-0.0064515537
180	0x3bf3c488	0.0074392
181	0xbcc2b8a6	-0.023769688
182	0xbd6b0073	-0.057373475
183	0xbd0ebf9e	-0.03485071
184	0x3cbf4273	0.023347115
185	0xbd21f499	-0.039539907
186	0xbd2120a6	-0.039337777
187	0x3c894733	0.016757583
188	0x3d68cb3f	0.056834456
189	0x3d35b736	0.044364177
190	0xbc9e95af	-0.019358484
191	0x3c9f7123	0.019463127
192	0x3d39a597	0.045323934
193	0xbcc861fa	-0.024460781
194	0xbda0c0e3	-0.0784929
195	0x3c398de0	0.01132533
196	0x3c5ef392	0.013607876
197	0xbc5f5a79	-0.01363241
198	0xbc75a5d6	-0.014993152
199	0x3a252bbf	0.0006300769
200	0xbc7f789c	-0.01559272
201	0x3ba3e6df	0.005001887
202	0x3b68aa2d	0.0035501823
203	0xbca4afbb	-0.020103326
204	0xbd7fcbc8	-0.0624502
205	0x3a634c14	0.00086706993
206	0x3c077d40	0.008269608
207	0xbcdb285a	-0.02675264
208	0xbdb6b346	-0.089209124
209	0xbdcd66dc	-0.100293845
210	0x3bc9aec9	0.006154869
211	0xbc02f4b6	-0.007992914
212	0xbd8d6d83	-0.06905653
213	0xbdc8cf62	-0.0980518
214	0xbc41d991	-0.011831657
215	0x3b150a86	0.0022741868
216	0xbce4baeb	-0.02792116
217	0xbd0890e6	-0.03334131
218	0x3d074163	0.033021342
219	0x3d72ef05	0.059309978
220	0xbb584406	-0.003299953
221	0xbbf158e7	-0.0073653343
222	0x3d6916f7	0.056906667
223	0x3d932c88	0.07186228
224	0xbc94a2d2	-0.018144045
225	0xbc5902d0	-0.013245299
226	0xba89b730	-0.0010506865
227	0x3c955a20	0.018231452
228	0x3cd08b0b	0.025456926
229	0x3a347b6a	0.0006884845
230	0x3c92bc07	0.017911924
231	0x3ce18d4b	0.027533194
232	0xbc02f976	-0.007994046
233	0xbd8c7789	-0.06858737
234	0xbd96889e	-0.073502764
235	0x3b2695cf	0.0025418883
236	0xbd4063e7	-0.046970274
237	0xbddaeef2	-0.106901065
238	0xbd29b4fd	-0.04143237
239	0x3dae0911	0.08497823
240	0xbd70edc3	-0.058820497
241	0xbd937d4b	-0.07201632
242	0x3cf1f2b0	0.029534668
243	0x3e0c9d5c	0.13731903
244	0x3deb532d	0.11490474
245	0xbcc8dac0	-0.02451837
246	0x3cf6673b	0.030078521
247	0x3df66209	0.120304175
248	0x3d8c7efa	0.06860156
249	0xbd5ded5d	-0.054181445
250	0xb9e17833	-0.000430049
251	0x3b14d4d8	0.0022709873
252	0x3ab33762	0.0013673122
253	0xb9e17db9	-0.00043009015
254	0xbbc24348	-0.0059284307
255	0xbb1f9259	-0.0024348705

arr_3 f4 [1, 10, 1, 1]
0	0xbc9f5a82	-0.019452337
1	0xbc7986d4	-0.015229899
2	0x3cdc8967	0.026920987
3	0x3ad414aa	0.0016180475
4	0xbc64f0ed	-0.013973457
5	0xbcba6496	-0.022753041
6	0xbcc23965	-0.023709008
7	0xbc5fcf98	-0.013660334
8	0x3b73b129	0.0037184453
9	0x3b61aee0	0.003443651

arr_4 f4 [250, 20]
0	0xbb712213	-0.0036793991
1	0xbd01676c	-0.03159277
2	0x3ca9cb8c	0.020726942
3	0xbc590be0	-0.01324746
4	0xbc384ff6	-0.011249533
5	0xbbb4c9c9	-0.0055172187
6	0x3d3855af	0.04500359
7	0x39c90e1e	0.00038348226
8	0xbd3637b2	-0.04448671
9	0x3bba4c4a	0.005685364
10	0xbcdf4c99	-0.027258204
11	0xbd0ad0f1	-0.03389067
12	0xbc4a6675	-0.012353529
13	0x3c6b5bcd	0.014365149
14	0xbaf4b3a3	-0.0018669259
15	0xbb010410	-0.001968626
16	0xbd0dd670	-0.03462833
17	0x3d23e4db	0.040013175
18	0xbc8a3998	-0.016873166
19	0x3da7c56d	0.08191953
20	0xb7cabb0f	-2.4167382e-05
21	0xbda52bf4	-0.08065024
22	0xbb6782ea	-0.0035325834
23	0xbd89649d	-0.067086436
24	0xbc5786bc	-0.013154682
25	0x3b0ba3e6	0.0021307408
26	0x3dd6fe67	0.10497742
27	0x3d801aa9	0.06255085
28	0xbd15a5e6	-0.036535166
29	0x3d2c9031	0.0421297
30	0xbd70c136	-0.05877801
31	0xbd9b1faa	-0.07574399
32	0x3cd4eac9	0.02599086
33	0x3d5d3d76	0.05401369
34	0x3dcbffe8	0.099609196
35	0x3d4692f1	0.048479978
36	0xbd2af8e8	-0.04174128
37	0xbd137ae5	-0.036005873
38	0xbc80bd7c	-0.015715353
39	0x3e040dd5	0.12895902
40	0xbb2d7167	-0.0026465298
41	0x3ca2c798	0.019870564
42	0xbcb5ca6a	-0.022191245
43	0xbc9d70fb	-0.019218912
44	0xbb92e8ae	-0.004483304
45	0xbc840ace	-0.016118433
46	0x3c437cac	0.01193158
47	0x3dc3b467	0.095558934
48	0x3c716999	0.014734649
49	0x3b478e4a	0.00304498
50	0xbd06f612	-0.032949515
51	0xbd1895d5	-0.037252266
52	0x3c17b6fa	0.009259934
53	0x3cf6b37d	0.030114884
54	0x3c817b81	0.015805962
55	0x3c1ec40a	0.009690294
56	0x3d1f38e0	0.0388726
57	0xbb9788b2	-0.0046244496
58	0x3b413ea4	0.00294868
59	0x3cf8d1ae	0.03037342
60	0xbb9cc348	-0.0047840215
61	0x3d6bca52	0.057565995
62	0xbc7e66b4	-0.015527416
63	0xbd510592	-0.051030703
64	0x3bd7a5ba	0.0065810354
65	0xbb7027e5	-0.0036644873
66	0xbdcedd32	-0.101007834
67	0x3cae7716	0.021297019
68	0x3d47fbb5	0.04882403
69	0x3d8f8238	0.07007259
70	0xbd3f872c	-0.04675977
71	0x3d19898d	0.037484694
72	0x3d5f03e0	0.054447055
73	0xbb815e10	-0.0039479807
74	0x3d263114	0.04057415
75	0xbcae7667	-0.021296693
76	0x3d012392	0.031528063
77	0xbb8f0c7a	-0.004365501
78	0x3c4f9491	0.012669698
79	0xbd538607	-0.05164149
80	0xba9427be	-0.0011303348
81	0x3d951aea	0.07280524
82	0x3b9344c7	0.004494283
83	0xbc97a9c1	-0.018513562
84	0x3b8a04c3	0.0042119934
85	0xb9ac0810	-0.00032812404
86	0xbdb7902d	-0.08963046
87	0x3b26e144	0.0025463859
88	0x3d3207f9	0.043464635
89	0x3d7ee387	0.062228706
90	0xbc945ce3	-0.018110698
91	0x3d50b1df	0.05095088
92	0x3d2394e0	0.0399369
93	0xbc0ae0a4	-0.00847641
94	0x3c74e3dc	0.014946904
95	0xbccaf731	-0.024776073
96	0xbc5bf005	-0.013423924
97	0x3c5ffd26	0.013671195
98	0x3c76d786	0.015066033
99	0xbde26f33	-0.11056366
100	0xbb8039c5	-0.0039131367
101	0x3d0f796f	0.035027917
102	0x3ca3262d	0.019915665
103	0x3d2522be	0.040316336
104	0xbd30bb41	-0.04314733
105	0x3c15299c	0.009104159
106	0x3d688097	0.056763258
107	0xbda94759	-0.082655616
108	0x3c2bd9ea	0.0104889665
109	0xbc113d15	-0.008864661
110	0x3bda8306	0.0066684512
111	0xbda989c5	-0.082782306
112	0xbdad3e5c	-0.0845916
113	0xbb8b28ad	-0.0042467923
114	0xbc9d114c	-0.019173287
115	0x3cb52db1	0.022116514
116	0xbc2839dd	-0.010267702
117	0x3d259ec9	0.040434632
118	0xbc76e2c9	-0.015068718
119	0x3d05e8b7	0.032692637
120	0xba36ee29	-0.00069782377
121	0x3d4938f2	0.049126573
122	0x3dbb758f	0.09153282
123	0x3d66aa88	0.056314975
124	0xbd671301	-0.056414608
125	0x3ce9968e	0.028514173
126	0x38c8beda	9.572292e-05
127	0xbdbb53ee	-0.09146868
128	0x3c571abb	0.013128932
129	0xbc3906f0	-0.011293158
130	0x3cb6bab9	0.022305833
131	0xbc91eeff	-0.017814158
132	0xbdf9fbaf	-0.12206208
133	0xbd05751c	-0.032582387
134	0xbb10e810	-0.0022110976
135	0x3ca63869	0.02029057
136	0x3c5fb781	0.013654591
137	0x3cc896a5	0.024485895
138	0xbc638c3c	-0.013888415
139	0x3d3f0b05	0.04664137
140	0x39b86e98	0.00035177614
141	0xbd7c18b5	-0.061547
142	0x3dd9e3f4	0.10639182
143	0x3d9727df	0.07380652
144	0xbdb92376	-0.09039967
145	0x3c7480e4	0.014923308
146	0xbd461d95	-0.048368055
147	0x3d1456eb	0.036215704
148	0xbd074b5f	-0.033030864
149	0xbd47f451	-0.048816983
150	0x3d0b65c3	0.034032594
151	0x3c00bdce	0.007857753
152	0xbd851e4e	-0.06499921
153	0xbce03db2	-0.027373169
154	0xbd308f83	-0.043105613
155	0xbcaf1951	-0.021374376
156	0x3c178d6c	0.009250026
157	0x3df13402	0.11777498
158	0xbc7666e0	-0.015039176
159	0x3d91c0a9	0.07116825
160	0x3b5a3841	0.003329769
161	0xbd857952	-0.06517281
162	0x3d76b91f	0.06023514
163	0x3b856f7b	0.0040721274
164	0xbda4026d	-0.08008275
165	0x3c8e14b2	0.017343853
166	0xbb4d3f69	-0.0031318313
167	0x3d9162a8	0.07098895
168	0xbcabefd9	-0.020988392
169	0x3da14087	0.07873636
170	0xbcd01b8e	-0.025403764
171	0xbd690723	-0.05689157
172	0xbc9d825d	-0.019227201
173	0x3c278ac6	0.010225957
174	0x3bd40b04	0.0064710397
175	0xbd53436b	-0.051577967
176	0xbd0d5f0c	-0.034514472
177	0x3db29239	0.08719296
178	0xbca25877	-0.019817574
179	0x3a9a904a	0.0011792269
180	0xbb8eec7d	-0.0043616877
181	0xbc816ef2	-0.015799973
182	0x3cf57bc4	0.029966243
183	0xbcf835b0	-0.030299038
184	0xbcab4810	-0.020908386
185	0xbcb95558	-0.022623703
186	0x3c89314c	0.01674714
187	0x3d2f004f	0.042724904
188	0xbbdd9edc	-0.0067633223
189	0x3d18c263	0.037294757
190	0xbb69aa5b	-0.0035654518
191	0xb9fd1432	-0.00048270967
192	0x3d419983	0.04726554
193	0x3c1b8728	0.009492673
194	0xb968d59d	-0.00022204821
195	0xbd0660d3	-0.032807183
196	0xbc865522	-0.016398016
197	0x3c8e0a65	0.01733894
198	0x396e099e	0.00022701031
199	0xb8799b5e	-5.9510923e-05
200	0x3b8097b5	0.003924335
201	0x3cd80b7d	0.026372666
202	0x3a92f884	0.001121298
203	0x3dacc4e1	0.08435989
204	0x3d080aa7	0.033213284
205	0x3b3f231c	0.0029165214
206	0x3dd39d39	0.10332722
207	0xbd2fe440	-0.042942286
208	0x3d0328d6	0.032021366
209	0x3cb6bf19	0.02230792
210	0x3db44cd5	0.08803717
211	0x3cb8bed3	0.02255193
212	0x3b7776f4	0.003776011
213	0xbcd55a17	-0.026043935
214	0xbd70a824	-0.0587541
215	0xbdc6aa33	-0.09700432
216	0x3975c1b7	0.00023437185
217	0xbc37ef0a	-0.011226425
218	0x3ae6afd9	0.0017600014
219	0xbd9518c7	-0.072801165
220	0xbab6cbe7	-0.0013946266
221	0xbdba0683	-0.09083273
222	0x3d9b5970	0.07585418
223	0x3dcda087	0.10040384
224	0x3bfbe5ce	0.007687307
225	0x3bdd76b5	0.0067585357
226	0x3e0ec151	0.13940932
227	0x3caf76b7	0.021418912
228	0xbd43ffc8	-0.047851354
229	0xbc8c0162	-0.017090503
230	0x3db441e5	0.08801631
231	0x3c40741b	0.011746432
232	0xbce0a045	-0.027420172
233	0xbcc668fb	-0.02421998
234	0xbda44e19	-0.080227084
235	0xbde8815e	-0.113528
236	0xbcf7dc86	-0.030256521
237	0x3c58cccb	0.01323242
238	0xbd0785a9	-0.033086453
239	0x3d2a11ce	0.041520886
240	0xbbaae3b1	-0.005215131
241	0xbc8e7b30	-0.017392725
242	0x3d4f32f5	0.050585706
243	0x3d92436d	0.07141767
244	0xbcb92497	-0.022600455
245	0xbbb5b0a2	-0.005544738
246	0x3d8df89c	0.06932184
247	0x3ce1f623	0.027583187
248	0xbce86319	-0.028367566
249	0xbbc546d8	-0.006020408
250	0x3c8429f0	0.016133279
251	0xbd01d68e	-0.031698756
252	0xbd409adb	-0.04702268
253	0x3c4fc7e5	0.012681936
254	0xbd078dae	-0.0330941
255	0xbd047478	-0.032337636

arr_5 f4 [1, 20]
0	0xb91ab6ba	-0.00014754655
1	0x3bb2d2aa	0.005457242
2	0xbc5af044	-0.013362948
3	0xbaab1c42	-0.0013054686
4	0x3c492e94	0.0122791715
5	0x3c23e3c8	0.010003038
6	0x3c28506b	0.010273079
7	0x3cab1eff	0.020888804
8	0x3c314c85	0.010821466
9	0x3bf4be41	0.007468969
10	0xbc042468	-0.008065321
11	0x3be1bd93	0.006889054
12	0x3c864fd7	0.016395492
13	0x3b71ad95	0.0036877145
14	0x3b8f7544	0.004377993
15	0x3c1e0c9a	0.009646559
16	0x3caec2eb	0.021333179
17	0x3c84ee37	0.016226871
18	0x3b9d6970	0.004803829
19	0x3bc98a3b	0.0061505116

arr_6 f4 [20, 10]
0	0x3bd3c213	0.0064623444
1	0xbc1651c1	-0.009174765
2	0xbbb4a9ab	-0.00551339
3	0x3c34c261	0.011032672
4	0xbc1675cd	-0.009183359
5	0x3a5d64ac	0.0008445482
6	0x3b1d1f7e	0.002397507
7	0x3b236a37	0.0024935135
8	0x3c1a8327	0.009430683
9	0x3c712bb4	0.014719892
10	0x3e9894d1	0.29801038
11	0xbe4be1a8	-0.199103
12	0xbe28115c	-0.16412872
13	0x3d3b0b3a	0.045665003
14	0x3ec8cfac	0.3922094
15	0x3d44fcc5	0.048092622
16	0x3e7b84e5	0.24562414
17	0xbe1f2232	-0.15540388
18	0xbe58d4f5	-0.21174987
19	0xbe8a6a8b	-0.2703441
20	0xbea91d47	-0.3303015
21	0xbe9b3089	-0.30310467
22	0xbe3483fd	-0.17628475
23	0x3f071857	0.52771515
24	0xbc61e29c	-0.013786938
25	0x3e6677c5	0.22506626
26	0xbe8c0144	-0.27344716
27	0x3d7ecd1c	0.062207326
28	0x3e841353	0.25795993
29	0x3cd6d76e	0.026225772
30	0x3cec74ea	0.028864343
31	0x3e25a87d	0.16177554
32	0x3e9e94df	0.30972955
33	0x3e137b68	0.14402544
34	0xbe349467	-0.17634736
35	0xbe7e3513	-0.24824934
36	0x3da1140e	0.07865153
37	0x3e80f760	0.25188732
38	0xbe5ff70d	-0.21871586
39	0xbeb847a3	-0.35992154
40	0x3e6e9158	0.23297632
41	0x3e864720	0.2622614
42	0x3e76feda	0.24120656
43	0xbe44b86f	-0.19210981
44	0xbe388aa7	-0.18021642
45	0x3d5deb8c	0.054179713
46	0xbe40f7c4	-0.18844515
47	0x3e4bedb2	0.19914892
48	0xbd07f001	-0.03318787
49	0xbedac7ae	-0.4273047
50	0xbe0e0a09	-0.13871016
51	0x3e9fc5d8	0.3120563
52	0x3dfbb8a9	0.122910805
53	0xbce9ebdc	-0.02855485
54	0x3dc20b1f	0.094747774
55	0xbe8ddb4c	-0.27706373
56	0xbe1886e6	-0.1489521
57	0x3e2da6f4	0.16958219
58	0xbe904620	-0.281785
59	0x3e430189	0.19043554
60	0x3d9bb3f2	0.07602681
61	0xbe09bc3a	-0.13450709
62	0x3f1e02db	0.6172311
63	0xbd3f940e	-0.046772055
64	0xbd176f71	-0.036971513
65	0xbe630a33	-0.2217186
66	0xbeaaba68	-0.33345342
67	0xbe549b71	-0.20762421
68	0x3e8ef8cf	0.279242
69	0xbc8037fa	-0.015651692
70	0x3d886367	0.066595845
71	0xbe5f0249	-0.21778215
72	0x3af8a0a0	0.0018968768
73	0xbea50865	-0.32232967
74	0xbe9e9711	-0.3097463
75	0x3ea983fd	0.33108512
76	0x3f2e5bb9	0.6810871
77	0xbea60a2d	-0.32429639
78	0x3e03b51a	0.12862054
79	0xbd530c96	-0.051525675
80	0xbc854906	-0.016270172
81	0x3e5174d1	0.20454718
82	0x3da31f62	0.0796497
83	0xbe4f3a15	-0.20237
84	0x3e8254f2	0.25455433
85	0x3e002dbc	0.12517446
86	0xbd2b289f	-0.041786786
87	0xbe3c555c	-0.18391937
88	0xbe27a717	-0.16372333
89	0xbd157df1	-0.03649706
90	0xbde15696	-0.11002843
91	0x3d8d010b	0.068849646
92	0xbe00a5b4	-0.1256321
93	0xbe8f7ebd	-0.2802638
94	0x3ed20bd7	0.41024658
95	0xbeae3c2d	-0.34030285
96	0x3b9b5038	0.0047397874
97	0x3e007ca4	0.12547547
98	0x3e92c6c8	0.28667283
99	0xbca61cd4	-0.020277418
100	0xbe35ec6d	-0.1776597
101	0xbc08bf4a	-0.008346388
102	0x3e7cce70	0.24688125
103	0x3e4053f5	0.18782027
104	0xbda345ad	-0.07972274
105	0x3d08d19b	0.03340302
106	0xbd895db3	-0.06707325
107	0x3e98d874	0.2985264
108	0xbd8587b7	-0.06520026
109	0xbebc308b	-0.36755785
110	0xbd891c76	-0.066948816
111	0xbccde1c6	-0.025132071
112	0xbd671632	-0.05641765
113	0xb99a53a0	-0.00029435474
114	0xbe21505e	-0.15753314
115	0x3ea74ece	0.3267731
116	0xbe42d0f1	-0.19025017
117	0x3ede010c	0.43360174
118	0xbe482e7a	-0.1954898
119	0xbdcc3c29	-0.09972412
120	0xbcede21c	-0.029038481
121	0x3c332fd4	0.010936696
122	0xbe2e0c5e	-0.16996905
123	0xbebb1f0e	-0.3654713
124	0x3cf798f4	0.0302243
125	0x3eab5747	0.33465025
126	0xbc9fed2c	-0.019522272
127	0xbd25cf74	-0.040481046
128	0x3eb0febb	0.34569344
129	0xbdab921d	-0.08377478
130	0xbd6cb997	-0.05779418
131	0xbcf7cdaf	-0.030249445
132	0x3dc014c8	0.09378964
133	0xbe09a01e	-0.13439986
134	0x3c2140dc	0.009842124
135	0x3a707c24	0.0009173772
136	0xbcbc0d09	-0.022955434
137	0xbd983955	-0.0743281
138	0x3e014372	0.12623385
139	0x3d7a588f	0.061119612
140	0xbe92182d	-0.2853407
141	0xbe4cf1b6	-0.2001408
142	0xbdaf5b4c	-0.08562335
143	0xbe572375	-0.2100962
144	0x3ebb3ec7	0.36571333
145	0xbd57ede5	-0.05271711
146	0xbe28be8d	-0.1647894
147	0x3e87082e	0.26373428
148	0xbe12302c	-0.14276189
149	0x3ef25e8d	0.47337762
150	0x3ccc586a	0.024944503
151	0x3e3adc0e	0.18248007
152	0xbddf7496	-0.10910909
153	0x3e00d114	0.12579757
154	0xbd01bc64	-0.031673804
155	0x3ea593d3	0.32339343
156	0xbe5ca5cd	-0.21547623
157	0xbea4f9a4	-0.3222171
158	0xbec1974d	-0.37810746
159	0x3eddb86a	0.4330476
160	0x3e5771f6	0.21039566
161	0x3eb6c1b5	0.35694662
162	0xbebbbcd8	-0.36667514
163	0xbe00d7ad	-0.12582274
164	0xbe5aac92	-0.21354893
165	0x3be3dd2b	0.0069538555
166	0xbdd20a0a	-0.10255821
167	0x3e116252	0.14197662
168	0xbe1d44ae	-0.1535823
169	0x3e46a308	0.19398129
170	0xbe9e0326	-0.30861777
171	0x3eb82356	0.3596446
172	0xbe6c885d	-0.23098893
173	0x3e99a8a0	0.30011463
174	0xbd7041aa	-0.058656372
175	0xb9aa1c8d	-0.000324462
176	0x3d95b363	0.07309606
177	0xbea50af7	-0.32234928
178	0x3e9428fe	0.28937525
179	0xbdb60e4c	-0.08889446
180	0x3df2b2cc	0.11850509
181	0xbcf81c16	-0.03028683
182	0xbd5af3f9	-0.053455327
183	0xbe0bc6cd	-0.13650055
184	0xbda1203a	-0.07867475
185	0x3d544adf	0.051829215
186	0x3d0b4d95	0.034009535
187	0x3e63c970	0.22244811
188	0xbdb163ed	-0.086616375
189	0xbd831c06	-0.064018294
190	0x3ec0f844	0.37689412
191	0xbeb47f5c	-0.35253417
192	0xbd836621	-0.06415964
193	0x3e30e5e0	0.1727519
194	0xbebad50b	-0.36490664
195	0xbe62f53a	-0.22163859
196	0xbdb3cab9	-0.08778901
197	0xbb8f1def	-0.004367582
198	0x3e72ba62	0.23703912
199	0x3eb8ed5f	0.361186

arr_7 f4 [1, 10]
0	0x3b938188	0.0045015253
1	0x3cb9193f	0.022595046
2	0x3c06a36e	0.008217676
3	0xbccdff11	-0.02514604
4	0xbbdaef9a	-0.0066813948
5	0x3abc9680	0.0014388114
6	0xbbaea577	-0.0053297835
7	0xbcbf9a88	-0.023389116
8	0x3c7dde6d	0.015494925
9	0x3c07ed3c	0.008296307
